ee641-hw2-SHILIMKAR/hw2-starter/problem2/results/best_model.pth (torch, 377378 bytes, 34 tensors)

encoder_low.0.weight f4 [32, 9, 3]
0	0x3c858747	0.016299857
1	0xbd93acaf	-0.07210671
2	0xbc72efc2	-0.0148276705
3	0x3e421c4a	0.18956104
4	0xbd9eb22f	-0.077488296
5	0xbde21a4b	-0.11040171
6	0x3e5c11fa	0.21491233
7	0xbdb0c912	-0.08632101
8	0x3d4d8ed6	0.050185047
9	0x3e258ce1	0.16167022
10	0xbd6cb907	-0.057793643
11	0xbdf22df5	-0.11825172
12	0xbdad0604	-0.08448413
13	0x3dbdd822	0.0926974
14	0xbc2ad9d7	-0.010427914
15	0xbe899077	-0.2686803
16	0xbe3c7571	-0.18404175
17	0xbcf72c35	-0.030172447
18	0x3db9e4dd	0.09076855
19	0x3db78ea3	0.08962753
20	0xbe26a792	-0.1627486
21	0xbdf65e85	-0.12029747
22	0xbda92b78	-0.08260244
23	0xbd250de4	-0.04029645
24	0x3d1519b6	0.036401473
25	0xbe08663e	-0.13320252
26	0xbd953af5	-0.07286636
27	0xbe25caa0	-0.16190577
28	0x3d59d736	0.053183757
29	0xbd8c7295	-0.06857792
30	0x3dc54e70	0.096341014
31	0xbdf9c6db	-0.12196132
32	0xbd791c6d	-0.060818125
33	0x3e21dbac	0.15806454
34	0x3cfde65f	0.030993639
35	0x3dde636d	0.10858808
36	0xbdc94138	-0.098268926
37	0xbdce03eb	-0.10059341
38	0xbcbc97af	-0.023021547
39	0x3d986d6b	0.07442745
40	0xbd22adfe	-0.039716713
41	0xbdc5d622	-0.09659983
42	0xbc4f6560	-0.012658447
43	0x3c4a14fe	0.0123341065
44	0x3d65c15a	0.056092598
45	0x3e19ea9c	0.15030903
46	0xbdb0486b	-0.08607563
47	0x3da9ab35	0.08284608
48	0x3d80b0a1	0.06283689
49	0x3d475118	0.04866132
50	0x3e22fe7c	0.1591739
51	0xbdb5fe42	-0.088863865
52	0xbd556e63	-0.052107226
53	0x3e637651	0.22213103
54	0x3e25e0c5	0.16199024
55	0x3db2027d	0.08691881
56	0xbca2126c	-0.019784175
57	0xbd942961	-0.07234455
58	0x3d952442	0.07282306
59	0xbe2e567b	-0.17025177
60	0x3e4b9145	0.19879635
61	0x3d7b1218	0.061296552
62	0xbcf9b32a	-0.03048094
63	0x3db4c078	0.08825773
64	0xbe56fc47	-0.20994674
65	0xbe37cd23	-0.17949347
66	0x3da54dd5	0.08071486
67	0xbdc7f752	-0.097639695
68	0xbd936fa0	-0.07199025
69	0xbceb8b0a	-0.028752822
70	0x3d722f22	0.05912698
71	0xbe068274	-0.13135701
72	0x3da02a27	0.0782054
73	0xbdd1309d	-0.102143504
74	0xbe07ba77	-0.13254724
75	0x3e28b9e4	0.16477162
76	0x3d5c036d	0.053714205
77	0x3cb9b9fc	0.022671692
78	0x3ccdaa3d	0.02510559
79	0x3e14a9d0	0.14517903
80	0x3d93fb52	0.0722567
81	0x3e03a792	0.12856892
82	0xbdd658a7	-0.10466128
83	0x3d872779	0.06599326
84	0x3d31e586	0.04343178
85	0x3dd826a4	0.10554245
86	0xbe56f5e8	-0.20992243
87	0x3e399f6e	0.18127224
88	0x3df6940b	0.12039956
89	0x3da008c1	0.0781417
90	0x3d243c8e	0.040096812
91	0x3dd6ab8f	0.10481941
92	0x3de0bfa7	0.10974055
93	0xbb7f4622	-0.0038951715
94	0x3df8b628	0.121441185
95	0xbca2b920	-0.019863665
96	0x3a57012d	0.00082017743
97	0x3a910661	0.0011064523
98	0x3e0fc267	0.14039002
99	0x3dae9cc4	0.085259944
100	0xbdd73a8c	-0.10509214
101	0x3d331cc3	0.0437286
102	0xbd82f595	-0.06394497
103	0xbc12aefc	-0.008952852
104	0xbde5c447	-0.112190776
105	0x3904ec11	0.00012676443
106	0x3cbb9bb7	0.022901399
107	0x3d00bc3d	0.031429518
108	0x3b40ef83	0.0029439635
109	0x3e580cdb	0.21098654
110	0x3e59ac49	0.21257128
111	0x3d460153	0.048341107
112	0x3d5cf8da	0.05394826
113	0x3b0227c6	0.0019860133
114	0x3e071783	0.13192563
115	0x3d3bc5fa	0.045843102
116	0x3c66249e	0.014046816
117	0xbdfa6782	-0.12226774
118	0xbc82a23e	-0.015946504
119	0x3daa8e67	0.08327942
120	0x3e1360fe	0.14392468
121	0xbd46eea6	-0.048567437
122	0x3b78000f	0.0037841832
123	0x3d364d21	0.04450715
124	0x3db66c6b	0.08907398
125	0xbe069ce5	-0.13145788
126	0xbe2bdfc4	-0.16784579
127	0xbe3eac1a	-0.18620339
128	0xbda5ced8	-0.08096093
129	0xbd986cd0	-0.07442629
130	0x3dff08ed	0.12452874
131	0xbe1773cf	-0.14790271
132	0xbc7afc81	-0.015318991
133	0xbe2fa545	-0.17152889
134	0xbdb41abc	-0.08794162
135	0x3dcb6786	0.09931855
136	0x3dc457da	0.09587069
137	0x3da8b5ac	0.08237776
138	0x3e1abd3e	0.15111253
139	0x3e425af7	0.18980013
140	0x3d41f066	0.047348402
141	0x3da94fee	0.082671985
142	0x3d6e0467	0.058109667
143	0xbcd5fd7b	-0.026121845
144	0x3e8206c5	0.2539579
145	0x3d4d3bfe	0.05010604
146	0x3e5b86b2	0.21438101
147	0x3e69b156	0.22821555
148	0x3d94988a	0.07255657
149	0x3e2536e2	0.16134217
150	0x3e4afc7a	0.19822875
151	0x3d30c241	0.043154005
152	0x3e720055	0.23632939
153	0x3e4b8362	0.19874337
154	0x3c071efc	0.008247133
155	0x3e816075	0.25268903
156	0x3e0bfe26	0.13671169
157	0x3d039cbc	0.032131895
158	0x3dec7643	0.11545994
159	0x3dd14b71	0.102194674
160	0x3e42bac7	0.19016562
161	0x3e379cbd	0.17930885
162	0xbbfc53e2	-0.0077004293
163	0xbd11e2ed	-0.035616804
164	0xbd8d4c8c	-0.06899366
165	0x3cf6834d	0.030091906
166	0x3d97c240	0.07410097
167	0x3dd76c8f	0.10518753
168	0xbc9ccf04	-0.019141681
169	0xbd796d47	-0.06089523
170	0x3e766b04	0.2406426
171	0xbd37aa2e	-0.04484003
172	0xbd0aa707	-0.033850696
173	0x3d8dc56f	0.06922423
174	0x3b822825	0.0039720708
175	0x3c8e0897	0.01733808
176	0x3e5ca2b1	0.21546437
177	0x3d0a6cfe	0.03379535
178	0xbcf755a1	-0.030192198
179	0xbcf2d1d8	-0.029641077
180	0xbe62f0c0	-0.22162151
181	0x3d3b3e95	0.04571398
182	0x3e189b4c	0.14902991
183	0xbd07e73e	-0.033179514
184	0xbe2b97fe	-0.16757199
185	0xbbb71beb	-0.005588045
186	0xbe3f1347	-0.18659697
187	0x3cce270e	0.025165107
188	0xbd925cc5	-0.07146601
189	0x3d4124ff	0.047154423
190	0xbcc5c61e	-0.024142321
191	0x3e0c0859	0.1367506
192	0x3ddb1448	0.10697228
193	0x3de3b41b	0.11118337
194	0xbe15e426	-0.14637813
195	0xbd9ad857	-0.07560795
196	0x3da39b94	0.079886585
197	0x3cf05439	0.029337035
198	0xbbe0099a	-0.006837082
199	0x3d310187	0.043214347
200	0xbc865dd2	-0.016402159
201	0x3e03fd6f	0.12889646
202	0x3e3251d8	0.17414033
203	0xbc6616ee	-0.014043553
204	0xbdfaad38	-0.1224007
205	0xbda1a429	-0.07892639
206	0xbd0f578c	-0.0349956
207	0xbd4a547f	-0.049396988
208	0x3d646a2d	0.05576532
209	0x3dc316bd	0.09525821
210	0xbe6ca0be	-0.23108193
211	0xbd2f6a83	-0.042826187
212	0x3c0db98d	0.008650196
213	0xbe722b61	-0.2364936
214	0x3d067779	0.03282878
215	0x3d9b4ca5	0.07582978
216	0xbe328af3	-0.17435817
217	0xbe832d64	-0.25620568
218	0xbe0da8dc	-0.13833946
219	0xbdf2cc52	-0.11855377
220	0x3e082667	0.132959
221	0x3e1082c1	0.14112379
222	0x3dcd834d	0.10034809
223	0x3dd440d0	0.103639245
224	0x3dea722c	0.11447558
225	0x3d870026	0.06591825
226	0xbde59180	-0.112093925
227	0xbe3d029f	-0.18458031
228	0xbe2bd87e	-0.16781804
229	0x3d312f7d	0.04325818
230	0x3c3684c2	0.01114005
231	0xbe0dc435	-0.13844378
232	0x3d52a90d	0.05143075
233	0xbdbd6242	-0.09247257
234	0x3d556c6f	0.052105363
235	0xbdf148cc	-0.11781463
236	0xbd28544a	-0.04109601
237	0xbd9b0bc2	-0.07570602
238	0x3dc2b7f7	0.09507745
239	0x3d84da1c	0.064869136
240	0x3e0de4b6	0.13856778
241	0x3d74ff7c	0.05981396
242	0xbc1d0d7c	-0.009585734
243	0xbde90bdb	-0.113792144
244	0xbe1ed5cf	-0.15511249
245	0x3e72128c	0.23639888
246	0x3c5a2cc8	0.013316341
247	0xbc749cc1	-0.014929951
248	0x3e2a87fa	0.16653433
249	0x3e3fcb4c	0.18729895
250	0x3d95135c	0.07279083
251	0x3ddade71	0.106869586
252	0x3d5fc651	0.05463249
253	0xbe1fc438	-0.15602195
254	0xbdae2b50	-0.08504355
255	0xbd82a966	-0.063799664

encoder_low.0.bias f4 [32]
0	0xbdbe9587	-0.09305864
1	0x3dbe6b7d	0.092978455
2	0xbe275716	-0.16341814
3	0xbdc4a8e5	-0.096025266
4	0x3d9e7cb9	0.07738633
5	0xbdf6407d	-0.12024019
6	0xbccd08ae	-0.025028553
7	0x3c04b408	0.008099563
8	0xbd0a2a7f	-0.033731934
9	0x3d39d6c2	0.045370825
10	0x3b9921e6	0.0046732305
11	0xbe183af9	-0.14866246
12	0xbe1150ba	-0.14190951
13	0x3e270da2	0.16313794
14	0xbdbbbbc1	-0.091666706
15	0xbcf13802	-0.029445652
16	0x3c637e24	0.013885055
17	0x3e54acff	0.20769118
18	0x3e282969	0.16422047
19	0xbc8ee6c5	-0.017444024
20	0x3dd626be	0.10456608
21	0xbde45cb3	-0.111504935
22	0x3e384747	0.1799594
23	0xbac6d139	-0.0015168554
24	0xbdeb1ea4	-0.114804536
25	0xbdfdb978	-0.12388891
26	0x3d833abb	0.06407686
27	0x3e4df84c	0.20114249
28	0x3da8e11c	0.08246061
29	0x3c6e0d9d	0.014529613
30	0x3d75370f	0.05986696
31	0x3dd017d6	0.10160796

encoder_low.2.weight f4 [64, 32, 3]
0	0xbb7ef7ac	-0.0038904948
1	0x3d16585f	0.03670537
2	0x3d8d88e4	0.069108754
3	0xbc7cf518	-0.015439294
4	0x3ce0d59c	0.027445607
5	0xbc0159e5	-0.007894968
6	0xbc2e7b35	-0.010649492
7	0xbd99aa2e	-0.07503162
8	0x3cb39fc8	0.021926776
9	0xbaec6e09	-0.0018038164
10	0xbd7e0448	-0.0620158
11	0x3d40fd8d	0.047116805
12	0xbd549b78	-0.05190608
13	0xbd3c6239	-0.04599211
14	0x3ce59ce9	0.028028922
15	0xbcef33e6	-0.029199552
16	0xbe05a94e	-0.13052866
17	0xbd3fe32b	-0.046847504
18	0xbd24e95c	-0.04026161
19	0x3cf39058	0.029731914
20	0x3d6a58a2	0.057213433
21	0x3bb0f789	0.0054006022
22	0xbdb0e2ef	-0.08637034
23	0xbda296c1	-0.0793891
24	0xbd8014cd	-0.062539674
25	0x3d438389	0.047732864
26	0x3d9f8602	0.07789232
27	0x3cd6d472	0.026224349
28	0x3d88addc	0.06673786
29	0x3d8f34c6	0.069924876
30	0xbcb213ee	-0.021738019
31	0x3d0afe80	0.033934116
32	0x3d930fbc	0.071807355
33	0xbd32ddac	-0.043668434
34	0xbd2950b8	-0.041336745
35	0xbcee2769	-0.029071527
36	0x3cffffd1	0.031249912
37	0xbca82547	-0.020525588
38	0x3bd5472d	0.006508729
39	0xbd919729	-0.0710891
40	0x3cd17304	0.025567539
41	0xbddbeb3d	-0.107382275
42	0x3d875896	0.06608693
43	0xbd471978	-0.048608273
44	0x3da4db27	0.080496125
45	0x3c838bb8	0.016057834
46	0xbd4cd955	-0.05001195
47	0xbc63bc08	-0.013899811
48	0x3dc27fa9	0.094970055
49	0xbde61777	-0.11234944
50	0xbc3e4206	-0.011612421
51	0xbcc4b7fb	-0.02401351
52	0x3dbee0fe	0.093202576
53	0x3d82ef07	0.06393247
54	0x3d9ee99a	0.077594
55	0xbde25729	-0.11051781
56	0xbd74dc60	-0.05978048
57	0xbc8219ad	-0.015881384
58	0x3d86a3fb	0.065742455
59	0xbca01c9a	-0.019544888
60	0x3ba660ce	0.005077458
61	0x3ab8c2c1	0.0014096127
62	0xbdb05a96	-0.08611028
63	0xbe1acd7f	-0.15117453
64	0x3dcfa0e4	0.10138109
65	0xbdc581e9	-0.09643919
66	0xbb1c0c0a	-0.0023810887
67	0xbd8b4905	-0.06801037
68	0x3cbd29f2	0.02309129
69	0x3b82f412	0.0039963806
70	0x3d054781	0.032538895
71	0x3cec2d05	0.02883006
72	0xbc7e1fab	-0.01551048
73	0x3da8dfdc	0.08245823
74	0x3de09f1c	0.10967848
75	0x3dfc29dc	0.123126715
76	0x3d75590b	0.05989937
77	0xbdf7851b	-0.12085935
78	0xbd3a5890	-0.045494616
79	0xbd61274c	-0.054969117
80	0x3e043962	0.12912515
81	0xbdc3a233	-0.095524214
82	0xbdde3b9f	-0.108512156
83	0x3d711b26	0.05886378
84	0x3d040057	0.032226887
85	0xbd73f53d	-0.05956005
86	0xbdb70a6d	-0.089375354
87	0xbda9953e	-0.08280419
88	0x3dc918c5	0.098191775
89	0x3d3eb278	0.04655692
90	0xbe03874e	-0.12844583
91	0xbd83ce17	-0.06435793
92	0xbbfb97ac	-0.007677993
93	0x3daa4c15	0.08315293
94	0x3db260e1	0.087098844
95	0x3d5511cc	0.052018926
96	0x3dc24d88	0.09487444
97	0xbdcb8e39	-0.09939236
98	0x3c7dcbe8	0.01549051
99	0xbcfdb424	-0.030969687
100	0xbde31e3a	-0.1108975
101	0xbd88c834	-0.06678811
102	0x3c954942	0.018223409
103	0x3d83460a	0.06409843
104	0x3c068966	0.008211469
105	0xbd4beceb	-0.04978649
106	0x3d5ad6df	0.053427573
107	0x3d9bf5bc	0.076152295
108	0xbd9d8dfc	-0.07693097
109	0x3d677654	0.05650933
110	0x3d9e584f	0.07731687
111	0xbcd3bc34	-0.025846578
112	0xbe4e3cb3	-0.20140342
113	0xbd38734a	-0.045031823
114	0x3d0d4f49	0.03449944
115	0xbe048aaf	-0.12943529
116	0x3cbcfdba	0.023070205
117	0xbdd20090	-0.102540135
118	0x3ca932b7	0.020654066
119	0x3be9a731	0.0071305265
120	0xbd3b2df8	-0.045698136
121	0xbd1df904	-0.038567558
122	0xbd98134b	-0.07425555
123	0x3cf30b70	0.02966854
124	0xbd8b6d5f	-0.0680797
125	0xbd112cf9	-0.03544328
126	0x3db46c85	0.08809761
127	0xbd641d7f	-0.055692192
128	0xbdae7bfd	-0.08519743
129	0xbcad6fea	-0.021171529
130	0xbceb0893	-0.028690612
131	0x3d0ab714	0.033866003
132	0xbd3b185d	-0.04567753
133	0xbd82c27f	-0.063847534
134	0x3dade817	0.08491533
135	0x3d5443b5	0.051822383
136	0xbc3ffd50	-0.011718109
137	0x3b9353d4	0.004496077
138	0xbdbfae2a	-0.09359391
139	0xbb238df4	-0.0024956437
140	0xbdb5b591	-0.08872522
141	0xbce4f39b	-0.027948191
142	0xba8713f0	-0.0010305624
143	0xbd8ba86b	-0.068192326
144	0x3df3e463	0.11908796
145	0xbd929c77	-0.071587496
146	0xbdd44b6a	-0.103659466
147	0x3d41e261	0.047335032
148	0xbaa9a649	-0.0012943234
149	0x3bfbac53	0.0076804548
150	0x3d90c3f4	0.07068625
151	0xbd866392	-0.0656196
152	0x3d6326fe	0.055457108
153	0x3d3b438d	0.04571872
154	0x3d5e7edc	0.0543202
155	0x3d8f3356	0.069922134
156	0x3d30a2ec	0.043124124
157	0x3b039e06	0.0020083203
158	0x3b7c96f9	0.0038542135
159	0xbd27094b	-0.040780347
160	0xbdc2c390	-0.09509957
161	0xbe12fd9f	-0.14354561
162	0xbdc63535	-0.09678117
163	0xbd02f698	-0.03197345
164	0x3cca3d33	0.024687385
165	0x3c5e44ab	0.013566176
166	0xbc3f0c46	-0.011660641
167	0xbdd751b3	-0.1051363
168	0xbd2d5e47	-0.042326238
169	0xbdb928f1	-0.09041012
170	0xbbc63739	-0.0060490635
171	0xbe105f87	-0.14098941
172	0xbcc5dd39	-0.024153339
173	0x3db7c4e2	0.08973099
174	0xbdbe2d1b	-0.09285947
175	0xbd09abe1	-0.033611182
176	0x3d6c5064	0.057693854
177	0xbdcd8365	-0.10034827
178	0xbde978c9	-0.11399991
179	0xbc84b419	-0.016199159
180	0x3daa91f9	0.08328623
181	0x3d31ba35	0.04339047
182	0xbb93f1b5	-0.0045148977
183	0xbd89ed10	-0.06734669
184	0xbd4df8a8	-0.050285965
185	0x3b279889	0.0025573096
186	0x3c56f9d6	0.013121089
187	0x3e339008	0.17535412
188	0xbdb5a3f4	-0.08869162
189	0xbdde055b	-0.10840865
190	0xbdaf9ff6	-0.08575432
191	0x3d8aea0f	0.067829244
192	0x3c3c9989	0.011511215
193	0xbc08cfd8	-0.008350335
194	0xbc716507	-0.014733559
195	0xbd45987b	-0.04824112
196	0xbdf77e08	-0.120845854
197	0xbd8d38aa	-0.068955734
198	0x3d7971e2	0.060899623
199	0x3dba027e	0.090825066
200	0x3d6a31c3	0.057176363
201	0xbc460993	-0.012087244
202	0xbddd9bab	-0.10820707
203	0x3da38e6a	0.07986148
204	0x3d3314a4	0.043720856
205	0x3da4187b	0.08012482
206	0xbdabf7f5	-0.083969034
207	0xbda73c44	-0.08165792
208	0xbdd0d0d8	-0.10196084
209	0xbd849cb8	-0.06475204
210	0x3ce47f0b	0.02789261
211	0xba1d7c51	-0.00060075993
212	0xbd96724a	-0.07346018
213	0xbb1abc28	-0.0023610685
214	0x3c864642	0.016390923
215	0x3dc81e0d	0.09771357
216	0x3ba87957	0.005141418
217	0xbe0deeb6	-0.13860592
218	0xbd621f8e	-0.055205874
219	0x3daa698b	0.08320912
220	0xbd83d177	-0.064364366
221	0x3d0561eb	0.032564085
222	0xbd7e1c21	-0.062038545
223	0x3bb962ad	0.005657515
224	0xbdf7be69	-0.12096865
225	0xbddbc540	-0.10730982
226	0xbcbde9e1	-0.023182811
227	0x3de70fec	0.11282334
228	0x3b7a0eee	0.0038155871
229	0x3dad99fa	0.08476634
230	0x3d9322c1	0.07184363
231	0x3c99e687	0.018786682
232	0x3ba01e92	0.0048864568
233	0xbdc9f516	-0.098611996
234	0xbd8340c3	-0.06408837
235	0x3cdfb035	0.027305702
236	0x3dfe4655	0.124157585
237	0xbc4bbefe	-0.012435673
238	0xbca40111	-0.02002004
239	0x3d502856	0.050819717
240	0xbc716ac8	-0.014734931
241	0x3db76b1c	0.08955976
242	0xbd996531	-0.07490004
243	0x3dffdaf5	0.124929346
244	0xbda669b7	-0.08125632
245	0x3d907c5c	0.0705497
246	0x3d1a4b21	0.037669305
247	0xbdacfb84	-0.0844641
248	0x3d9ea150	0.07745612
249	0x3dc9391a	0.098253444
250	0xbda902f2	-0.08252515
251	0x3d9e115e	0.07718156
252	0xbd896e2f	-0.06710469
253	0x3d7d13af	0.06178635
254	0xbd1c6267	-0.03817978
255	0xbbd2c6b6	-0.0064323796

encoder_low.2.bias f4 [64]
0	0xbdb79676	-0.08964245
1	0x3dab54d9	0.08365793
2	0xbc0ba437	-0.008523039
3	0x3dafb1fa	0.08578868
4	0x3cb45752	0.022014294
5	0xbd88c471	-0.06678093
6	0xbd24b574	-0.04021211
7	0x3d891f6c	0.06695446
8	0xbdb53190	-0.08847344
9	0xbd8f169a	-0.06986733
10	0xbc1c149f	-0.009526401
11	0xbd6163bc	-0.055026755
12	0xbd03e8d8	-0.03220448
13	0x3bff2af6	0.0077871038
14	0x3d0342d8	0.03204617
15	0x3ba10b4c	0.004914677
16	0xbc96f58d	-0.018427635
17	0x3da8ffe8	0.08251935
18	0xbcb5b52d	-0.022181118
19	0xbaf4525a	-0.0018640265
20	0x3c562ad4	0.013071734
21	0xbd534f68	-0.0515894
22	0xbdcdd4fe	-0.10050391
23	0x3db27897	0.08714407
24	0xbd94f7d9	-0.07273836
25	0xbbe223d6	-0.0069012446
26	0x3dd53671	0.104107745
27	0xbd90bf5b	-0.07067748
28	0x3cbdf688	0.023188844
29	0xbd2a861f	-0.041631814
30	0x3d73c171	0.059510652
31	0xbdaf7b55	-0.085684456
32	0x3d91b46a	0.071144894
33	0x3d36025c	0.044435844
34	0xbd6fb1ee	-0.058519296
35	0x3d98dcc3	0.07463982
36	0x3d9d6baf	0.07686555
37	0x3d2a01ba	0.041505553
38	0xbd2bfd7e	-0.041989796
39	0x3d3ba075	0.04580732
40	0x3ccb2709	0.024798887
41	0x3dcc90a5	0.09988526
42	0x3d98b88e	0.07457076
43	0x3d4fd7f4	0.05074306
44	0x3c70ff61	0.014709325
45	0x3dc34946	0.0953546
46	0xbd70e36c	-0.058810636
47	0xbabe6a4c	-0.0014527529
48	0x3dbd04a1	0.092293985
49	0xbc4ba582	-0.012429597
50	0x3c4fadd7	0.012675724
51	0xbd95c847	-0.073135905
52	0x3d605872	0.054771848
53	0xbd97526e	-0.07388769
54	0x3d8ee30e	0.06976901
55	0xbd22a166	-0.039704703
56	0x3cdf9aa4	0.027295418
57	0x3d6ecc20	0.058300138
58	0x3dc63b2f	0.09679257
59	0x3d6921e9	0.056917105
60	0xbd587f36	-0.052855693
61	0xbd5af30e	-0.05345445
62	0x3cba8500	0.022768497
63	0xbd9b0da2	-0.0757096

encoder_low.4.weight f4 [128, 64, 3]
0	0x3d3da1d4	0.04629691
1	0x3d4299c0	0.04750991
2	0x3ade3e96	0.0016955908
3	0xbd0bb0ff	-0.034104344
4	0x3c45373e	0.012037097
5	0x3c1af538	0.009457879
6	0x3db470fa	0.08810611
7	0xbca0fa21	-0.01965052
8	0x3d13d427	0.036090996
9	0xbd8d4291	-0.06897462
10	0xbdfb5f2c	-0.12274012
11	0xbd77d56a	-0.060506262
12	0x3be1c18c	0.0068895277
13	0xbc1ebec2	-0.009689035
14	0xbcdc36ad	-0.02688154
15	0xbcc1bd32	-0.023649786
16	0xbdb3e02d	-0.087829925
17	0x3d8f5ffb	0.07000729
18	0xbd67fdf6	-0.05663868
19	0x3b86ba56	0.0041115684
20	0x3cf4cb5c	0.029882126
21	0xbc14f64d	-0.009091926
22	0x3c8a6c12	0.016897235
23	0xbbafecba	-0.005368796
24	0xbd01ab74	-0.03165765
25	0xbc98ef00	-0.018668652
26	0x3d85e0a7	0.0653699
27	0x3d46137a	0.048358418
28	0x3c5dbc8c	0.013533723
29	0xbc70c631	-0.01469569
30	0xbb98dae1	-0.0046647643
31	0xbd1a43c4	-0.037662283
32	0xbc8c0e1e	-0.017096575
33	0x3d160654	0.03662713
34	0xbd739473	-0.059467744
35	0x3d81560d	0.06315241
36	0xbd1d9bc9	-0.038478646
37	0x3ddc4bb8	0.1075663
38	0x3d4f0d5c	0.05054985
39	0xbd6a2192	-0.05716092
40	0xbd085594	-0.03328474
41	0x3d07a009	0.033111606
42	0x3deb5399	0.11490554
43	0xbd5bf832	-0.053703494
44	0xbdbce955	-0.09224192
45	0x3ce896fa	0.028392304
46	0xbd56a0d0	-0.052399457
47	0x3c26cba6	0.0101803895
48	0xbd5aa925	-0.053383965
49	0xbcc6675a	-0.024219204
50	0xbd2a7e74	-0.0416245
51	0x3baed167	0.0053350213
52	0x3d6e3f4c	0.058165833
53	0x3c1daf45	0.009624307
54	0x3d153086	0.03642323
55	0xbd3c9cae	-0.04604786
56	0x3d5feda8	0.054670006
57	0xbd421437	-0.04738256
58	0x3bca9a07	0.0061829123
59	0x3e350201	0.17676546
60	0xbe0774fc	-0.1322822
61	0x3d8ab8bc	0.067735165
62	0xbd9e2aa9	-0.077229805
63	0xbd42f75c	-0.04759918
64	0x3c414c81	0.011798025
65	0xbd3a7cfb	-0.045529347
66	0xbda293a9	-0.0793832
67	0xbd8b950a	-0.06815536
68	0x3d7fab49	0.06241921
69	0xbcd0f1f9	-0.025506007
70	0xbc2bf020	-0.010494262
71	0x3cf0bfd1	0.02938834
72	0xbd3a49ad	-0.04548042
73	0xbd10fcb0	-0.03539723
74	0x3bb3c85d	0.0054865316
75	0x3d403270	0.0469231
76	0x3d92cab0	0.07167566
77	0xbd85e01e	-0.065368876
78	0xbd95d8c9	-0.07316739
79	0xbb37f362	-0.0028068651
80	0x3c30ccb6	0.010790994
81	0xbd57dfb6	-0.05270358
82	0x3d21304c	0.0393527
83	0x3c40c909	0.0117666805
84	0xbcdb2f01	-0.026755812
85	0x3e33c337	0.17554937
86	0x3d9b63c9	0.07587392
87	0xbc64e102	-0.013969662
88	0xbd423fa8	-0.04742399
89	0x3d8269dd	0.06367848
90	0x3a0d78ba	0.0005396713
91	0xbba0b34f	-0.0049041878
92	0xbb8f8965	-0.0043803924
93	0x3e1dc7d2	0.15408257
94	0xbbb3123a	-0.0054648193
95	0x3b226b46	0.0024783178
96	0x3c8bbf98	0.017059132
97	0xbc9e2e2b	-0.019309124
98	0x3c3bb327	0.0114562875
99	0x3cf17a36	0.02947722
100	0xbda6b746	-0.081404254
101	0xbcd7bc0c	-0.026334785
102	0x3c581046	0.013187474
103	0xbc491f79	-0.01227557
104	0xbc3827e4	-0.011239979
105	0x3c19b33e	0.009381114
106	0x3d8165a0	0.063182116
107	0xbc6e3d0e	-0.014540924
108	0x3c953150	0.01821199
109	0x3d5aede6	0.053449534
110	0xbc2fa9b3	-0.010721612
111	0xbcddf71e	-0.027095374
112	0xbd151771	-0.03639931
113	0x3c8e1a7f	0.017346619
114	0x3dae9489	0.085244246
115	0x3cc201bb	0.023682466
116	0xbc9e8e25	-0.01935489
117	0x3d6bc695	0.05756243
118	0x3d6c84ad	0.057743717
119	0x3ccaf20f	0.024773626
120	0xbcdcbced	-0.026945556
121	0x3d337064	0.043808356
122	0xbd98b577	-0.07456487
123	0xbd8d1fe5	-0.06890849
124	0xbd92c817	-0.0716707
125	0xbc0d6500	-0.008630037
126	0xbd0e067a	-0.034674145
127	0x3dde1878	0.10844511
128	0x3a372a0e	0.00069871626
129	0xbd9cb7ef	-0.0765227
130	0x3a8ff3b0	0.0010982659
131	0xbdddec86	-0.10836129
132	0x3cfab97f	0.03060603
133	0x3cfcfdc0	0.030882716
134	0x3ceef3db	0.029169014
135	0x3d6c4931	0.05768699
136	0x3d2ae3e3	0.041721236
137	0xbcc73adf	-0.024320064
138	0xbb972f62	-0.004613803
139	0x3e281211	0.16413142
140	0x3d09c956	0.033639275
141	0x3d5b3212	0.053514548
142	0x3d8bddb6	0.068293974
143	0x3d865332	0.06558837
144	0x3c4de35b	0.012566413
145	0xbdb1e7b2	-0.086867705
146	0x3d6d6f65	0.057967562
147	0xbcd6eb8f	-0.02623537
148	0x3db417ae	0.08793579
149	0xbda8e05d	-0.08245919
150	0x3c9d6605	0.019213686
151	0xbd5f0015	-0.054443438
152	0xbd2dc832	-0.04242725
153	0x3d194d1e	0.03742706
154	0xbd7acbcd	-0.061229516
155	0x3d12f201	0.035875324
156	0xbd800996	-0.06251828
157	0xbcd3c5ff	-0.025851248
158	0xbdcb4f16	-0.09927194
159	0x3de62b8f	0.11238777
160	0x3cbf2935	0.023335079
161	0x3d019224	0.03163351
162	0x3c9826ea	0.018573243
163	0xbd8c4a3b	-0.06850096
164	0x3c176628	0.009240665
165	0x3dd1ab88	0.10237795
166	0xbdd96c0a	-0.1061631
167	0x3d79e2b1	0.061007205
168	0x3e16cf1a	0.1472744
169	0xbd0af369	-0.03392354
170	0xbde70d36	-0.11281817
171	0xbcaa0a69	-0.020756917
172	0x3d1cdad4	0.03829463
173	0xbd7e8ab5	-0.062144
174	0xbd827322	-0.06369616
175	0x3d60e97d	0.05491017
176	0x3d6c5acb	0.057703774
177	0xbdf345fd	-0.118785836
178	0x3bda5cab	0.006663879
179	0xbeafad94	-0.34312117
180	0xbcabf524	-0.020990916
181	0x3cfb546d	0.030679906
182	0x3c280862	0.010255905
183	0xbd4060c9	-0.0469673
184	0xbd92322e	-0.07138477
185	0x3bc7d410	0.006098278
186	0x3bdbad8e	0.006704039
187	0x3cfd7a87	0.030942215
188	0xbc792997	-0.01520767
189	0x3dde2781	0.108473785
190	0x3c3a0b1d	0.011355189
191	0xbd283668	-0.04106751
192	0x3d29ebb8	0.041484565
193	0xbd94a807	-0.07258611
194	0xbc0cba9c	-0.008589413
195	0x3c0aa618	0.008462451
196	0xbd274c56	-0.040844284
197	0x3d6d8709	0.057990108
198	0x3cff58f7	0.031170351
199	0x3c1355fb	0.008992667
200	0xbc9199b2	-0.017773483
201	0x3a112914	0.0005537432
202	0x3aa41433	0.0012518227
203	0xbd8563d1	-0.06513179
204	0x3c9f6055	0.019455114
205	0x3d8fbec4	0.070188075
206	0xbd3220b3	-0.043488216
207	0xbd26746d	-0.040638376
208	0x3d223c6f	0.039608415
209	0x3ce70698	0.028201386
210	0x3d13aef3	0.036055516
211	0xbd8fcce9	-0.070215054
212	0x3c275a0c	0.01021434
213	0x3d57129f	0.052507993
214	0x3d844e2a	0.06460221
215	0xbd7ccdc7	-0.061719682
216	0xbd45ebcc	-0.048320577
217	0xbd54f516	-0.051991545
218	0x3bb829b4	0.005620206
219	0x3ce1fe7e	0.027587172
220	0xbbe92317	-0.0071147787
221	0xbd124c14	-0.035717085
222	0x3d8b20df	0.06793379
223	0xbd50c55d	-0.05096947
224	0x3c99799a	0.018734742
225	0xbd899fd3	-0.06719937
226	0xbc2627fc	-0.010141369
227	0xbcf36c1b	-0.029714635
228	0x3c8d7c0b	0.017271062
229	0x3d3a4dac	0.04548423
230	0xbccd2518	-0.025042102
231	0x3c1e1acb	0.009649943
232	0x3d337c99	0.043819997
233	0x3b17e971	0.0023179913
234	0xbcda39f3	-0.02663896
235	0xbd92a44e	-0.07160245
236	0x3ca78469	0.02044888
237	0xbbd9ebd0	-0.0066504255
238	0xbd495b87	-0.049159553
239	0xbd0608c7	-0.032723214
240	0x3d020bc0	0.031749487
241	0x3cf50e2f	0.02991399
242	0x3d812d43	0.06307461
243	0xbde27489	-0.110573836
244	0xbdedb37f	-0.11606502
245	0xbdac1efb	-0.084043466
246	0x3d549324	0.051898137
247	0xbd6923c8	-0.05691889
248	0xbd221bff	-0.03957748
249	0x3c0e08a5	0.008669053
250	0xbcd9b921	-0.026577534
251	0xbcbbb20d	-0.02291205
252	0x3d783dd0	0.060605824
253	0x3d45edb4	0.048322394
254	0x3d7e287f	0.06205034
255	0xbd60ceb8	-0.054884642

encoder_low.4.bias f4 [128]
0	0xbd129664	-0.035787955
1	0xbd8278d1	-0.063707
2	0x3ced6ee2	0.028983537
3	0x3d8993f6	0.067176744
4	0xbc5f50d0	-0.013630107
5	0xbb218344	-0.002464489
6	0xbbef3708	-0.0073002614
7	0xbd847681	-0.06467915
8	0x3d2777ad	0.040885616
9	0x3dad47f7	0.08460992
10	0x3db917fb	0.09037777
11	0xbd63649f	-0.05551588
12	0xbd2ed628	-0.042684704
13	0x3c17a176	0.009254804
14	0xbd077864	-0.033073798
15	0xbd670252	-0.056398697
16	0x3d0e1956	0.03469213
17	0x3dafaf0c	0.085783094
18	0x3c8a3009	0.016868608
19	0x3d607b84	0.054805294
20	0xbccfb61f	-0.025355397
21	0xbd796bee	-0.060893945
22	0xbd187e8d	-0.037230063
23	0x3abf03cb	0.0014573274
24	0xbd84b2b5	-0.06479398
25	0xbdb8dea5	-0.09026841
26	0x3ca55e1f	0.020186482
27	0xbcb0375f	-0.021510778
28	0x3db5b20c	0.0887185
29	0x3d8e3101	0.069429405
30	0x3d29881c	0.04138957
31	0x3c7f95ce	0.015599681
32	0x3cd5eec2	0.026114825
33	0x3c176256	0.009239754
34	0xbd63648e	-0.05551582
35	0xbd97d6b0	-0.07413995
36	0x3d0bf79b	0.03417168
37	0x3d61fc16	0.05517205
38	0x3da9ec2e	0.08297001
39	0x3c4f33bf	0.012646615
40	0x3d519c35	0.05117436
41	0x3cec4259	0.02884023
42	0x3c8f5c81	0.017500164
43	0x3d635d69	0.055509005
44	0x3e114346	0.14185819
45	0xbd2567b2	-0.040382095
46	0xbda8cea6	-0.0824254
47	0x3da62de7	0.08114224
48	0x3d83fe5f	0.06445002
49	0xbca19358	-0.01972358
50	0xbd97d783	-0.074141525
51	0xbd744b0c	-0.059641883
52	0x3d484665	0.04889526
53	0xbbc9ff07	-0.006164435
54	0xbd70501f	-0.05867016
55	0x3daa9b8f	0.08330452
56	0xbd623f12	-0.05523593
57	0x3cfa49e9	0.030552821
58	0x3db7a018	0.08966082
59	0x3dbe76c7	0.09299999
60	0x3ca6017d	0.020264382
61	0xbabc97a1	-0.0014388451
62	0x3cca6474	0.024706103
63	0xbbd44025	-0.006477373
64	0x3b779b41	0.0037781748
65	0x3d97fd74	0.07421389
66	0x3e167fe5	0.14697225
67	0x3d04df25	0.03243937
68	0x3caa31f6	0.020775776
69	0x3c6669ff	0.014063357
70	0x3d43adbc	0.047773108
71	0x3d7a023a	0.06103728
72	0x3cfcf17d	0.03087687
73	0x3d4f2dfd	0.050580967
74	0xbd9cd280	-0.07657337
75	0x3c7bf3f7	0.01537799
76	0x3d37aeda	0.044844486
77	0x3d1e3262	0.038622268
78	0xbd52a8d4	-0.05143054
79	0xbda2b311	-0.079443105
80	0x3bfea077	0.0077705937
81	0xbd5c475e	-0.053779
82	0x3cfd5df6	0.030928593
83	0xbbb384ed	-0.0054784925
84	0xbdc23958	-0.09483594
85	0x3d17a8ae	0.0370261
86	0x3d4a093e	0.04932522
87	0x3ccb3a5b	0.0248081
88	0x3d0b3afb	0.033991795
89	0xbd5d28d0	-0.053994
90	0xbd0b909e	-0.034073465
91	0x3d84faa9	0.06493122
92	0x3d9b5446	0.07584433
93	0xbd37b2c6	-0.044848226
94	0x3daefa8d	0.085438825
95	0xbd6d3ffd	-0.057922352
96	0xbd2d1e58	-0.042265266
97	0x3c7a8308	0.015290029
98	0x3d1a8853	0.037727665
99	0x3d800c78	0.06252378
100	0x3d7b9f7a	0.061431386
101	0x3c643438	0.013928466
102	0xbd8c80c1	-0.06860495
103	0xbd8585ce	-0.06519662
104	0x3d3eeceb	0.04661266
105	0xbd85caaa	-0.06532796
106	0x3c9f78a6	0.01946671
107	0xbd4be084	-0.04977466
108	0x3d9e4c9c	0.07729456
109	0xbda4706a	-0.08029254
110	0x3d909136	0.07058947
111	0xbbe952ea	-0.00712048
112	0x3cf1a9b5	0.029499868
113	0xbcd02e01	-0.025412561
114	0x3d37779b	0.0447918
115	0xbd45bb11	-0.048274104
116	0x3dd36e25	0.10323743
117	0xbdb6fd6d	-0.08935056
118	0xbd6e9bf4	-0.058254197
119	0xbc9b4856	-0.01895539
120	0x3ddf526c	0.109043926
121	0x3db48760	0.08814883
122	0xbd86cad5	-0.06581656
123	0xbd939c7f	-0.07207584
124	0x3c784013	0.015151995
125	0xbb86f3b1	-0.0041184057
126	0xbd16f03f	-0.03685021
127	0x3c89214d	0.016739512

fc_mu_low.weight f4 [12, 512]
0	0xbe2534b4	-0.16133386
1	0x3e0068f3	0.12540035
2	0x3c88bd78	0.016691908
3	0xbc40ab27	-0.011759556
4	0xbb62f52d	-0.0034631
5	0xbd24b605	-0.04021265
6	0xbc88808a	-0.016662855
7	0x3d25639b	0.040378194
8	0x3ce3e4d8	0.027819082
9	0x3c205059	0.009784781
10	0x3cf62c48	0.030050412
11	0x3cbfc6cf	0.023410229
12	0x3e12ba62	0.14328912
13	0x3d841d6e	0.06450926
14	0x3e0585c9	0.13039316
15	0x3e0b1400	0.13581848
16	0x3cf85d10	0.030317813
17	0xbcadf4b6	-0.021234851
18	0xbe27fa1d	-0.16404004
19	0x3e228281	0.15870096
20	0xbc247173	-0.010036814
21	0x3d8dd7e2	0.06925942
22	0x3deffc89	0.11718089
23	0xbdcd9f24	-0.10040119
24	0xbcb42118	-0.021988437
25	0x3e097ce7	0.13426553
26	0xbdb91a47	-0.09038215
27	0xbe52bf33	-0.20580749
28	0xbca6d573	-0.020365452
29	0xbd1a96aa	-0.03774134
30	0x3c7f0d72	0.01556717
31	0x3c8b4a74	0.017003275
32	0x3cb4467c	0.022006266
33	0x3cf42981	0.029804947
34	0xbd887889	-0.06663615
35	0x3d82a8b7	0.06379836
36	0x3cb6705a	0.02227037
37	0xbd85ee45	-0.06539587
38	0x3d166dbc	0.036725745
39	0xbd7183e1	-0.05896366
40	0xbe450cf0	-0.19243217
41	0xbd60079c	-0.054694757
42	0xbd3752ed	-0.04475682
43	0x3c641e5f	0.013923257
44	0x3c8e6467	0.01738186
45	0x3c8570b1	0.016289087
46	0xbc650e17	-0.01398041
47	0x3c0ec9e2	0.008715125
48	0x3ca284e4	0.019838758
49	0x3d55abf5	0.052165944
50	0x3d2a4b71	0.041575853
51	0x3dbdafea	0.092620686
52	0xbd6d9724	-0.058005467
53	0x3d1e38b4	0.038628295
54	0x3e64616d	0.2230279
55	0x3dfddb42	0.12395336
56	0x3d00f895	0.031487066
57	0xbc29f1fd	-0.010372636
58	0xbbc85b28	-0.0061143823
59	0x3b8ba3a6	0.004261452
60	0xbbe60492	-0.007019588
61	0xbca77471	-0.020441266
62	0xbb3f85d5	-0.0029224057
63	0xbca863ca	-0.020555396
64	0x3d205b67	0.039149668
65	0x3d0bcb16	0.034129225
66	0xbd3bbee0	-0.04583633
67	0x3c5c3c2b	0.01344208
68	0x3ab380fa	0.0013695054
69	0x3ca3b507	0.019983782
70	0x3de9aab2	0.11409511
71	0x3cb19c50	0.02168098
72	0x3c39c810	0.0113392025
73	0xbbab899a	-0.0052349092
74	0x3cb8b726	0.02254827
75	0x3ca3257b	0.019915333
76	0xbd286e57	-0.041120853
77	0x3dda348f	0.10654556
78	0x3c753d18	0.014968179
79	0xbcb9edbc	-0.022696368
80	0x3c4eb1eb	0.012615661
81	0x3d101b80	0.035182476
82	0x3d52bddd	0.0514506
83	0xb924bbb6	-0.00015710187
84	0xbbad2b9e	-0.0052847406
85	0x3cccb2b6	0.02498756
86	0x3af54669	0.0018713
87	0x3cceb5ed	0.025233233
88	0xbd6af0bf	-0.0573585
89	0xbb37a794	-0.0028023468
90	0xbb216232	-0.002462518
91	0xbd10ca5f	-0.035349246
92	0x3cf717f9	0.030162798
93	0xbba25567	-0.0049540284
94	0x3cf1d437	0.029520137
95	0x3d006cf7	0.031353917
96	0x3c44e084	0.012016419
97	0xbb3ce885	-0.0028825116
98	0xbc31146b	-0.010808091
99	0xbcd1c2a4	-0.025605507
100	0x3c83e218	0.01609902
101	0x3ce8b20d	0.028405214
102	0xbca26185	-0.019821892
103	0x3d512293	0.051058363
104	0x3e18853e	0.14894578
105	0x3c597ded	0.013274652
106	0xbd6b9365	-0.057513613
107	0xbe26e57a	-0.16298476
108	0x3d4fa77d	0.05069684
109	0x3d1e0572	0.03857941
110	0xbcbd73f6	-0.023126584
111	0x3dd92c65	0.10604171
112	0x3d773648	0.0603545
113	0x3cda865c	0.026675396
114	0xbd46e551	-0.048558537
115	0x3d4c0444	0.049808756
116	0xbd82c6ae	-0.063855514
117	0xbd9bc6ef	-0.07606303
118	0xbdd5f102	-0.10446359
119	0x3e0733c3	0.1320334
120	0x3bc92c2e	0.0061393
121	0x3d3b857a	0.04578159
122	0xbbebc297	-0.007194828
123	0x3e1caa0e	0.15299246
124	0xbbac5127	-0.0052586976
125	0x3c2e3417	0.010632536
126	0xbd366ae1	-0.04453552
127	0xbd08c9f5	-0.033395726
128	0x3da8e9e3	0.08247735
129	0xbc216058	-0.00984963
130	0x3ca635e8	0.020289376
131	0x3d852ce5	0.065027036
132	0xbc59e08b	-0.013298164
133	0x3d3aee9b	0.04563771
134	0x3c8f145b	0.017465761
135	0x3d23cded	0.039991308
136	0xbb6036d3	-0.0034212365
137	0xbd1f1c66	-0.038845442
138	0x3ceac19f	0.028656779
139	0x3bb5f534	0.005552912
140	0xba9b8cc6	-0.0011867515
141	0xbe52e408	-0.205948
142	0x3da5acb4	0.08089581
143	0x3d51ca3f	0.051218268
144	0xbd639ff2	-0.055572458
145	0xbccf5884	-0.025310762
146	0xbd2455e8	-0.04012099
147	0xbc5d3530	-0.01350145
148	0x3d81d517	0.06339472
149	0x3ccab596	0.02474479
150	0x3d28691f	0.041115876
151	0x3a5686f2	0.00081835606
152	0xbca7367e	-0.020411726
153	0x3d49a0d7	0.049225654
154	0xbdc54922	-0.096330896
155	0x3e37b77b	0.17941086
156	0x3e00e394	0.12586814
157	0x3af8823a	0.0018959709
158	0xbc867124	-0.016411372
159	0xbc8ce017	-0.017196698
160	0xbc9983d9	-0.018739628
161	0xbdb5bfdd	-0.08874486
162	0x3c1e1d0b	0.009650479
163	0xbdb70ebe	-0.08938359
164	0x3d303c48	0.04302624
165	0x3d9b16c3	0.07572701
166	0xbc0e7b98	-0.008696459
167	0xbd29de09	-0.041471515
168	0x3cd452c9	0.025918381
169	0x3d18c789	0.037299667
170	0x3ddfee7b	0.109341584
171	0x3cfe519c	0.031044774
172	0xbc6fcf60	-0.014636844
173	0x3cf04314	0.02932886
174	0xbd433331	-0.04765624
175	0xbd35a3b5	-0.044345576
176	0xbc95e9fe	-0.018300053
177	0x3e2f76a6	0.17135105
178	0x3e286e52	0.16448334
179	0x3e027f26	0.12743816
180	0x3cb0dcf4	0.021589734
181	0xbd78ab47	-0.060710218
182	0x3d17f6f7	0.03710076
183	0xbca50925	-0.020145962
184	0xbd31b576	-0.043385945
185	0x3c11d107	0.008899934
186	0x3d57e4a2	0.052708276
187	0xbce7c64a	-0.028292794
188	0xbae6de2c	-0.001761382
189	0x3dc74a18	0.09730929
190	0x3d23ebb5	0.04001971
191	0x3d5a3a69	0.05327836
192	0xbdfd399b	-0.12364503
193	0xbd30d8f5	-0.043175656
194	0x3d966cfc	0.07345006
195	0x3ce43cb2	0.027860973
196	0x3ca50c32	0.020147417
197	0xbcd19d5f	-0.025587736
198	0xb9ad86e4	-0.00033097633
199	0xbc9740a7	-0.018463446
200	0xbcc47714	-0.023982562
201	0x3d5acca2	0.05341781
202	0x3c3b68e4	0.011438582
203	0x3d2befc5	0.04197671
204	0xbd0f359f	-0.034963246
205	0xbc77bd4d	-0.015120816
206	0xbd102e4b	-0.0352004
207	0x3c8f26be	0.017474528
208	0x3e194a4b	0.14969747
209	0x3d8e4c5e	0.0694816
210	0xbe003db3	-0.12523536
211	0xbd15cfca	-0.036575116
212	0xbd7cd9ed	-0.061731268
213	0x3c90a9de	0.017659124
214	0xbe511736	-0.2041901
215	0x3e287806	0.16452035
216	0xbd1a2655	-0.037634213
217	0xbc98eeab	-0.018668493
218	0x3bbb9546	0.005724582
219	0x3d2ba4f0	0.041905344
220	0x3d20b735	0.03923722
221	0x3d9761b7	0.073916845
222	0x3e622986	0.22086152
223	0x3e2576d3	0.16158609
224	0xbc30abf8	-0.010783188
225	0x3c381579	0.011235588
226	0x3bfc1c89	0.0076938313
227	0x3c364c25	0.011126553
228	0x3db95900	0.090501785
229	0xbd308adf	-0.043101188
230	0xbca4d682	-0.020121817
231	0x3e14d7ea	0.1453549
232	0xbe439cff	-0.19102858
233	0xbe07decd	-0.13268586
234	0xbdb5060d	-0.08839045
235	0xbdc703a1	-0.09717489
236	0x3ce73755	0.028224627
237	0xbad16f40	-0.001597859
238	0xbd6a055c	-0.057134017
239	0xbced0dfc	-0.028937332
240	0xbe23620e	-0.15955374
241	0x3d7db3ab	0.061938923
242	0xbe218a7d	-0.15775485
243	0xbe1d2b46	-0.15348539
244	0xbcfe14d1	-0.031015785
245	0xbcbd929e	-0.023141202
246	0x3d1350af	0.035965618
247	0x3b46fd6f	0.003036346
248	0x3c37e72d	0.01122455
249	0xbcfd7f90	-0.030944616
250	0x3d3128d9	0.043251846
251	0xbcdb45f2	-0.026766751
252	0x3da7b58a	0.08188923
253	0xbcbfb80a	-0.023403186
254	0xbe271cd9	-0.16319598
255	0xbd61a51d	-0.055089105

fc_mu_low.bias f4 [12]
0	0xbccdd5c6	-0.02512635
1	0x3d080e02	0.033216484
2	0xbd504a96	-0.05085238
3	0xbc787095	-0.01516356
4	0x3b30c1e2	0.0026971032
5	0xbcb98943	-0.02264846
6	0x3c867c14	0.016416587
7	0x3c14bb46	0.009077853
8	0x3d276b7e	0.040873997
9	0x3c8064fe	0.015673157
10	0xbc8c69ec	-0.017140351
11	0x3d34087a	0.043953396

fc_logvar_low.weight f4 [12, 512]
0	0xbc8cd22d	-0.017190063
1	0x3dc62a67	0.09676056
2	0x3d4ac7a7	0.04950681
3	0xbc4af807	-0.012388236
4	0xbd211ad5	-0.03933223
5	0xbd0e6e93	-0.03477342
6	0x3c6722ba	0.014107401
7	0x3c9a1f11	0.018813642
8	0x3c1f0ab0	0.009707138
9	0xbbdef510	-0.006804116
10	0x3bf66554	0.0075194035
11	0x3d3a8c7d	0.045544136
12	0x3d68255b	0.05667625
13	0x3c1d5ae3	0.009604189
14	0xbc352da7	-0.011058248
15	0x3d3cc088	0.04608205
16	0x3b9be755	0.0047578015
17	0x3c8699f3	0.01643083
18	0x3d996429	0.07489807
19	0x3ba520bf	0.005039304
20	0xbcc2f499	-0.023798274
21	0x3d83cad6	0.06435172
22	0x3d521115	0.051285822
23	0x3d82ef0d	0.063932516
24	0xbd88c4df	-0.06678175
25	0xbd3c1d5e	-0.045926444
26	0xbd6c947c	-0.057758793
27	0xbd67aaf5	-0.05655952
28	0x3d93afb6	0.072112486
29	0xbc7b4647	-0.01533658
30	0xbb927df7	-0.0044705826
31	0xbc901c73	-0.01759169
32	0xbb94143c	-0.0045190137
33	0x3c4515b7	0.012029103
34	0x39e89582	0.0004436188
35	0xbbba889d	-0.005692555
36	0xbb21587e	-0.0024619396
37	0x3cb9a57a	0.022661913
38	0x3d0ac949	0.033883367
39	0xbcba714c	-0.022759102
40	0xbde2fc7e	-0.11083315
41	0xbd9090ca	-0.07058866
42	0xbda96192	-0.08270563
43	0x3c08fdf6	0.00836133
44	0x3d295c87	0.041348007
45	0xbcff9e91	-0.03120354
46	0xbae1e3e6	-0.0017234057
47	0xbbc92b1e	-0.006139173
48	0x3d8139ca	0.063098505
49	0xbc50d241	-0.012745441
50	0x39fca8da	0.0004819099
51	0x3d67d997	0.056603994
52	0xbe138c50	-0.14408994
53	0x3dcb2b65	0.09920386
54	0x3d4d2038	0.050079554
55	0x3c633500	0.013867617
56	0x3d45d827	0.048301842
57	0x3bf8ee52	0.0075967694
58	0xbd0c6c10	-0.034282744
59	0xbce77bd8	-0.028257295
60	0x3d346f99	0.04405174
61	0x3d0fa8fd	0.03507327
62	0x3c4c733b	0.012478645
63	0x3d05526f	0.032549318
64	0x3d35720b	0.044298213
65	0xbcd33e6f	-0.025786607
66	0x3c7ea78b	0.015542875
67	0xbcc81701	-0.024425032
68	0x3c90f9e0	0.017697275
69	0x3cc8f4f0	0.024530858
70	0x3d89bbdb	0.06725284
71	0x3d0db38c	0.034595057
72	0xbcc84f6c	-0.024451934
73	0xbcf61823	-0.030040806
74	0x3cd03048	0.025413647
75	0x3cc0506a	0.023475844
76	0xbe3fbe09	-0.18724836
77	0xbe227ee7	-0.15868722
78	0xbe4ffa74	-0.20310384
79	0xbe41658d	-0.18886395
80	0xbb2c1464	-0.002625727
81	0xbc2ae0bb	-0.0104295565
82	0xbcc80fb1	-0.024421545
83	0xbc26a1f7	-0.010170451
84	0x3d2acff0	0.04170221
85	0x3c0fec9e	0.008784441
86	0x3d3d901a	0.046280004
87	0x3b35c230	0.0027734153
88	0xbc7988a5	-0.0152303325
89	0xbbe0a8fc	-0.006856082
90	0x3c9458e6	0.018108796
91	0xbc41f50d	-0.01183821
92	0x3c3f20dc	0.011665549
93	0x3cca54fa	0.024698723
94	0xbc88a76d	-0.016681397
95	0x3d371c3f	0.044704672
96	0x3d332688	0.04373792
97	0xbc1b1e65	-0.009467696
98	0x3d0b0410	0.03393942
99	0x3b063aa7	0.0020481737
100	0xbca39322	-0.01996762
101	0xbd9fc50d	-0.07801256
102	0xbd4db6f6	-0.050223313
103	0xbd9ea39e	-0.07746051
104	0xbd1e43dc	-0.038638934
105	0xbc0593e6	-0.0081529375
106	0xbbe75c8a	-0.007060592
107	0xbdb2658d	-0.087107755
108	0x3d8f42d8	0.06995171
109	0x3d4749a1	0.048654202
110	0xbc9f637b	-0.019456616
111	0xbc1948ce	-0.009355737
112	0x3c375102	0.011188747
113	0xbd9fbf00	-0.07800102
114	0x3c6dd35d	0.014515725
115	0x3d020987	0.031747367
116	0x37d04240	2.4826382e-05
117	0xbdd3594f	-0.10319769
118	0xbdeebb6d	-0.116568424
119	0xbd8cd823	-0.06877162
120	0x3d10c100	0.03534031
121	0xbb3f0452	-0.0029146862
122	0xbbcb875c	-0.0062112045
123	0x3c743d61	0.014907212
124	0x3cb4cd01	0.02207041
125	0xbc247ea4	-0.010039959
126	0x3d507837	0.050895896
127	0xbcaac46c	-0.020845614
128	0x3c824a86	0.015904676
129	0x3d33c97a	0.043893315
130	0xbc9971fb	-0.018731108
131	0xbcf334e0	-0.029688299
132	0x3cf85201	0.03031254
133	0xba85063f	-0.0010148956
134	0xbc9a1610	-0.018809348
135	0x3cd2f2d6	0.025750559
136	0x3d35109f	0.044205304
137	0x3d39f8ab	0.045403164
138	0xbd060848	-0.03272274
139	0x3cbaed21	0.02281815
140	0x3d0028d2	0.03128893
141	0x3df773d6	0.12082641
142	0x3df09173	0.11746492
143	0x3db27d6f	0.08715331
144	0xbcf92436	-0.030412775
145	0x3c71522f	0.014729067
146	0x3d885964	0.06657675
147	0x3d2c271b	0.04202948
148	0xbcc51d67	-0.024061872
149	0xbccb760a	-0.024836559
150	0xbcad5b7c	-0.021161787
151	0xbca9bf4d	-0.020721102
152	0xbdbc6986	-0.091998145
153	0xbd882d11	-0.06649221
154	0xbc16cb8a	-0.009203801
155	0x3d1f00ee	0.038819246
156	0x3d27d5df	0.040975448
157	0x3d3ffb1b	0.046870332
158	0xbcdf4d25	-0.027258465
159	0xbbf53916	-0.007483612
160	0x3bbc97c6	0.0057553975
161	0xbda0292e	-0.078203544
162	0xbc34799b	-0.011015321
163	0xbcae1746	-0.021251332
164	0x3cdbb8fd	0.026821608
165	0x3ca78153	0.020447409
166	0x3af8b610	0.0018975157
167	0x3c26ffbf	0.010192811
168	0xbe054e8e	-0.13018247
169	0xbca7806e	-0.020446982
170	0x3d4eca40	0.05048585
171	0xbdd64110	-0.104616284
172	0xbc9463f3	-0.018114066
173	0xbcd5f221	-0.026116433
174	0xbc9d8316	-0.019227546
175	0xbcf833a6	-0.030298065
176	0xbe4ca172	-0.19983461
177	0x3ceab075	0.028648594
178	0x3d2ed221	0.042680863
179	0xbce7b94d	-0.0282866
180	0x3d45601b	0.048187356
181	0xbb79e04c	-0.0038128076
182	0xbb174507	-0.0023081915
183	0x3d02ae70	0.031904638
184	0x3c0155be	0.007893978
185	0xbd0c1a54	-0.034204796
186	0x3bf2b8fe	0.0074073067
187	0x3d0ffac3	0.035151254
188	0xbd328192	-0.0435806
189	0x3c18b814	0.009321231
190	0xbbf3620e	-0.0074274605
191	0xbcc062f5	-0.023484686
192	0x3d506263	0.05087508
193	0x3cf8e937	0.030384643
194	0xbcc3c310	-0.023896724
195	0xbcabdcb2	-0.02097926
196	0x3d347f65	0.044066805
197	0xbcdaab0c	-0.02669289
198	0x3d24d44f	0.040241536
199	0x3d5723ee	0.0525245
200	0xbd2c66c5	-0.042090196
201	0x3c9333ee	0.017969098
202	0x3cdef732	0.027217481
203	0x3cedef91	0.029044898
204	0xbc54e636	-0.01299434
205	0xbd03a4dc	-0.032139644
206	0xbb3254a2	-0.002721109
207	0xbbf4d41f	-0.007471576
208	0xbd30c928	-0.043160588
209	0xbca7830f	-0.020448236
210	0xbd12498b	-0.035714667
211	0xbd87e853	-0.06636109
212	0x3d517baa	0.051143326
213	0xbd280695	-0.041021902
214	0x3cceecc2	0.02525938
215	0x3d9c6b26	0.076376244
216	0x3c420623	0.011842283
217	0x3cb91564	0.022593208
218	0xbceadd17	-0.028669877
219	0xbc4563cf	-0.012047722
220	0x3d568a98	0.052378267
221	0x3d62fc92	0.05541665
222	0x3be363bd	0.00693938
223	0x3ccbcd4b	0.024878165
224	0x3d20b02b	0.039230507
225	0xbcd2dfd5	-0.025741497
226	0xbca45fa8	-0.020065144
227	0x3d22b22c	0.0397207
228	0x3d547491	0.05186898
229	0xbbb34b79	-0.0054716435
230	0x3d4a07df	0.049323913
231	0x3c7e07b1	0.015504763
232	0xbbe0bf5e	-0.0068587502
233	0xbcacae1e	-0.02107912
234	0x3d26d859	0.04073367
235	0x3d4dd837	0.050255027
236	0x3cd9d16b	0.026589116
237	0xbd9f82d9	-0.07788629
238	0xbd2b6bb3	-0.041850757
239	0x3cb39ba2	0.021924797
240	0xbd1797ea	-0.03701011
241	0xbd3d169e	-0.046164148
242	0xbe1db926	-0.1540266
243	0xbd9cc222	-0.076542154
244	0x3ccdf00e	0.025138881
245	0xbcabdcc8	-0.0209793
246	0x3b55c3fc	0.0032618036
247	0xbd2971fe	-0.041368477
248	0x3d42e3b7	0.047580447
249	0x3bcbc7bb	0.006218878
250	0xbc1d7678	-0.009610765
251	0xbc7dc1af	-0.015488072
252	0x3d5d8b13	0.05408771
253	0x3c8a5cbf	0.016889928
254	0x3d967994	0.07347408
255	0xbb51ab95	-0.003199314

fc_logvar_low.bias f4 [12]
0	0xbe0d8b7d	-0.13822742
1	0x3c98e70e	0.018664863
2	0x3aacf550	0.0013195667
3	0x3ce12e8a	0.027488012
4	0xbe3dba52	-0.18528107
5	0x39882488	0.0002596716
6	0xbcd4edd5	-0.025992313
7	0xbd6a5198	-0.05720672
8	0xbcff492f	-0.031162826
9	0xbd47616f	-0.048676904
10	0x3b2d6031	0.002645504
11	0xbb2aeea5	-0.0026082185

encoder_high.0.weight f4 [64, 12]
0	0xbbd26720	-0.006420985
1	0xbdc4a38b	-0.09601506
2	0xbe165ade	-0.146831
3	0x3c823de4	0.015898652
4	0xbe435b5d	-0.19077821
5	0x3d16164d	0.03664236
6	0xbe1c9f34	-0.15295106
7	0x3e835ac0	0.25655174
8	0x3dc2a487	0.09504037
9	0x3dc4e0d9	0.09613199
10	0xbe20d159	-0.1570486
11	0x3e09e276	0.13465294
12	0xbda59fdc	-0.080871314
13	0xbcf542a9	-0.029939013
14	0xbde924f1	-0.11383999
15	0x3e7a7c70	0.24461532
16	0xbe5ab0ab	-0.21356456
17	0x3e55744b	0.20845143
18	0xba6e2e2b	-0.0009085859
19	0x3e4c4a35	0.19950183
20	0x3de6fa91	0.112782605
21	0xbdafcd0a	-0.0858403
22	0x3d21dafb	0.039515477
23	0xbe59c951	-0.21268202
24	0x3e429d60	0.19005346
25	0x3bcffbb4	0.006347144
26	0xbe6e81ac	-0.23291653
27	0xbdc742df	-0.097295515
28	0x3d523c73	0.05132718
29	0x3e0f7750	0.14010358
30	0xbddfc2d0	-0.109258294
31	0xbd4a9c0c	-0.049465224
32	0xbe113496	-0.14180216
33	0x3d3a94de	0.045552127
34	0xbe176f05	-0.14788444
35	0xbd1436b8	-0.036184996
36	0xbe8d7f2b	-0.27636084
37	0x3dffef76	0.124968454
38	0x3dc822d4	0.09772268
39	0x3d87cf2f	0.06631314
40	0x3e50d589	0.20393957
41	0xbe79090d	-0.24319859
42	0x3e779741	0.24178793
43	0xbe54ecb7	-0.20793425
44	0x3e85d814	0.26141417
45	0x3bd3a4a2	0.0064588347
46	0xbe0bde54	-0.1365903
47	0x3e3ecb47	0.18632232
48	0xbd694d11	-0.056958262
49	0xbe298ada	-0.16556874
50	0x3e4fb206	0.20282754
51	0xbc89e8f2	-0.01683471
52	0xbe11523e	-0.14191529
53	0x3e2bfd65	0.16795881
54	0x3d54c3ef	0.05194467
55	0xbe2544a4	-0.16139466
56	0xbe8cc273	-0.27492103
57	0x3e3fc1ea	0.18726316
58	0xbdac4109	-0.08410842
59	0x3dea73bb	0.11447855
60	0xbe32f808	-0.17477429
61	0xbcb1df4e	-0.021712925
62	0xbd9004aa	-0.070321396
63	0xbd60ba62	-0.05486525
64	0x3cdc0800	0.026859283
65	0xbdf5ae80	-0.11996174
66	0xbe8feeb8	-0.28111815
67	0xbe0f7d31	-0.140126
68	0x3b92fccd	0.0044857026
69	0xbe17e64a	-0.14833942
70	0xbe4c8ff7	-0.19976793
71	0xbe30c611	-0.17263056
72	0xbdb300c0	-0.087403774
73	0x3df83478	0.121193826
74	0x3e6b17f6	0.22958359
75	0x3e07ee02	0.13274387
76	0xbdbdfc3c	-0.092766255
77	0xbe1d16d7	-0.15340744
78	0xbe7249e6	-0.23661003
79	0x3dc1bcb2	0.09459819
80	0xbe8077f1	-0.25091508
81	0xbcf7daaa	-0.030255634
82	0xbe19991b	-0.14999811
83	0xbd82bfc9	-0.06384236
84	0xbd3858aa	-0.04500643
85	0xbc485ded	-0.012229425
86	0x3ddfc333	0.10925903
87	0x3c9f33ee	0.019433942
88	0x3e6bcb28	0.23026717
89	0x3e4d216b	0.20032279
90	0x3e866df8	0.26255774
91	0x3e158da4	0.14604813
92	0xbe1328f6	-0.14371094
93	0xbd9cafba	-0.07650705
94	0xbe9516f8	-0.29119086
95	0xbd506421	-0.05087674
96	0xbe098fc9	-0.13433756
97	0xbdb3a96f	-0.08772551
98	0xbe4da3c9	-0.2008201
99	0xbdf30f8c	-0.118682
100	0x3e00e5a4	0.12587601
101	0xbe4dbb70	-0.20091033
102	0x3ce73aba	0.028226245
103	0xbe358507	-0.17726527
104	0x3e8f92b3	0.2804161
105	0xbde15332	-0.11002196
106	0xbe7dc766	-0.24783096
107	0x3bb17812	0.005415925
108	0xbe51cc00	-0.20487976
109	0x3d1d97c0	0.0384748
110	0xbc1ab717	-0.009443066
111	0xbe38d545	-0.18050106
112	0x3d957008	0.07296759
113	0x3dd0cc4e	0.10195218
114	0x3d406b7e	0.046977513
115	0x3e4d8b03	0.2007256
116	0x3e56d263	0.20978694
117	0x3d82b3b9	0.063819356
118	0xbc76ac13	-0.015055674
119	0xbe96b714	-0.29436553
120	0x389fada2	7.6140524e-05
121	0xbe5d9a4f	-0.21640895
122	0x3e43469a	0.19069901
123	0x3d6fe1b6	0.058564864
124	0x3db0a0e9	0.08624441
125	0x3e355160	0.17706823
126	0x3e400d20	0.18755007
127	0x3e55eaf1	0.20890404
128	0xbcb021df	-0.021500526
129	0xbe3425d5	-0.17592557
130	0x3e110b07	0.14164363
131	0xbd2fcd79	-0.042920563
132	0x3e684adb	0.22684805
133	0xbe442266	-0.19153747
134	0x3d00caef	0.031443533
135	0xbca81f93	-0.020522868
136	0xbd18ea97	-0.037333097
137	0xbd519f4c	-0.051177308
138	0xbe314915	-0.17313035
139	0xbc969812	-0.01838306
140	0x3c47108d	0.012149942
141	0xbd26fee9	-0.040770445
142	0xbe8710ba	-0.2637995
143	0x3d868a14	0.06569305
144	0x3a7ce24b	0.00096467574
145	0xbcb88ac0	-0.022527099
146	0xbe4474a7	-0.19185124
147	0x3e7f9141	0.24957754
148	0x3d14547f	0.036213394
149	0xbceb2308	-0.028703228
150	0xbe43eab1	-0.19132496
151	0x3e8ba208	0.27272058
152	0x3d89cebe	0.06728886
153	0x3e74c896	0.23904642
154	0xbd93ee93	-0.07223239
155	0x3ddc100c	0.10745248
156	0xbe056e73	-0.13030414
157	0x3d4a9f31	0.049468223
158	0xbd68454c	-0.05670671
159	0xbdbd4816	-0.09242265
160	0xbb85db6b	-0.0040849946
161	0x3e0b52fa	0.13605872
162	0x3d810f45	0.063017406
163	0x3e98df3b	0.2985781
164	0xbe313ae9	-0.17307629
165	0xbcc15fe2	-0.02360529
166	0xbcdba46d	-0.026811803
167	0x3d53bfaf	0.051696476
168	0xbe515647	-0.20443068
169	0x3e30794e	0.17233774
170	0x3e790c5e	0.24321124
171	0x3d038a10	0.03211409
172	0xbd8e51b7	-0.069491796
173	0xbd4d3dc2	-0.050107725
174	0xbe05685b	-0.1302809
175	0x3e8fe7ae	0.28106445
176	0x3e3e9210	0.18610406
177	0xbea449c4	-0.3208753
178	0x3e05c503	0.13063435
179	0x3e67a8e6	0.22623023
180	0x3b97d91e	0.0046340367
181	0x3e483b9d	0.1955399
182	0x3b12c1c1	0.0022393318
183	0xbe4e39ae	-0.2013919
184	0xbcac3755	-0.021022478
185	0xbdd11896	-0.102097675
186	0xbca5e850	-0.020252377
187	0xbe4d8f93	-0.200743
188	0xbe352a56	-0.17691931
189	0xbe8d3e28	-0.27586484
190	0x3d05a432	0.032627292
191	0x3dec2c42	0.11531879
192	0x3e807b8e	0.25094265
193	0x3e77c422	0.24195912
194	0xbe84ed27	-0.25962183
195	0x3e03ea24	0.12882286
196	0x3d066737	0.032813277
197	0xbe5f5c9e	-0.21812674
198	0x3e72dcf9	0.23717107
199	0xbe5d0bb3	-0.21586494
200	0xbe5f6e1d	-0.21819349
201	0x3e46762e	0.1938102
202	0x3e525dea	0.20543638
203	0xbe36902d	-0.17828436
204	0xbe42791b	-0.1899151
205	0xbe478cfc	-0.19487375
206	0x3d92178d	0.07133398
207	0xbd2ad1f3	-0.04170413
208	0x3e0ccfe1	0.13751175
209	0x3e6faffd	0.23406978
210	0xbe5776b9	-0.21041383
211	0xbe1b2d98	-0.15154111
212	0xbdaafe23	-0.08349254
213	0xbdd77423	-0.10520198
214	0xbd7868ab	-0.060646694
215	0xbe812d25	-0.25229755
216	0x3e3e0b9e	0.18559119
217	0x3d4c3078	0.04985091
218	0x3e832d34	0.25620425
219	0xbe524239	-0.20533074
220	0xbe2b6ace	-0.16739962
221	0xbd3b0856	-0.045662247
222	0xbcd65667	-0.026164247
223	0xbe6d25e3	-0.23158984
224	0xbe730dbf	-0.23735712
225	0x3a9111f6	0.0011067975
226	0xbe604a45	-0.21903332
227	0x3d07372d	0.033011604
228	0xbdec7386	-0.11545472
229	0x3be4a647	0.0069778296
230	0xbe14da13	-0.14536314
231	0xbde69a79	-0.11259932
232	0x3dc19cbb	0.09453722
233	0x3df953dc	0.12174198
234	0xbe20b8bf	-0.15695475
235	0xbdcf9566	-0.10135917
236	0xbe9a248a	-0.30106002
237	0xbe8439cb	-0.25825343
238	0xbd5a070e	-0.053229384
239	0x3dee4abb	0.116353475
240	0x3e645719	0.2229885
241	0x3d715e8c	0.058928058
242	0xbe385483	-0.18000989
243	0xbded2164	-0.115786344
244	0xbdf6132a	-0.12015374
245	0xbe0c53a7	-0.13703786
246	0xbe16ec1b	-0.14738505
247	0x3e35d0ce	0.17755434
248	0xbe6fc262	-0.23413995
249	0xbd671b77	-0.056422677
250	0xbd9f8846	-0.07789664
251	0xbe623a1f	-0.22092484
252	0xbe78aa2a	-0.24283662
253	0xbd9098be	-0.07060383
254	0x3b73e55d	0.0037215569
255	0x3e5d7743	0.21627526

encoder_high.0.bias f4 [64]
0	0x3da54588	0.08069903
1	0xbe3e6701	-0.1859398
2	0xbe484fb1	-0.1956165
3	0xbe517005	-0.20452888
4	0x3e005bd8	0.12535036
5	0x3e91b768	0.2846024
6	0xbd3e0f0f	-0.04640108
7	0xbda3f00c	-0.0800477
8	0xbd381107	-0.044938114
9	0x3e8ca4a8	0.27469373
10	0x3ebb744a	0.3661216
11	0x3ccb7434	0.024835683
12	0xbdc55b98	-0.09636611
13	0x3ec01ee1	0.3752356
14	0xbe4b6271	-0.19861771
15	0x3d9d9263	0.07693937
16	0xbe4b38de	-0.19845912
17	0xbe04db33	-0.12974243
18	0x3e266a39	0.16251458
19	0xbce6c606	-0.028170597
20	0xbe8ab7b2	-0.27093273
21	0xbe2f2f42	-0.17107871
22	0xbdc23b39	-0.09483952
23	0x3e0646d5	0.13112958
24	0x3a96e3ad	0.0011511944
25	0x3e9b9a35	0.30391088
26	0x3e99417c	0.29932773
27	0xbe596db5	-0.21233256
28	0x3e71b7e7	0.2360531
29	0xbe78f9ae	-0.24313995
30	0xbe5e8b4f	-0.2173283
31	0x3dd97557	0.10618084
32	0x3e143db9	0.1447667
33	0x3ea75d76	0.32688493
34	0xbe8564b9	-0.26053408
35	0xbc84fe9f	-0.016234694
36	0x3c0a2acb	0.008433054
37	0xbe82f644	-0.2557851
38	0x3eb23259	0.34804037
39	0x3ddf9199	0.109164424
40	0xbdc3ccb5	-0.09560529
41	0x3c984aa1	0.018590273
42	0x3e8c5fa1	0.2741671
43	0xbdc49b91	-0.095999844
44	0x3ebb7da8	0.36619306
45	0x3e969182	0.2940789
46	0xba9094ab	-0.0011030635
47	0xbe653869	-0.223848
48	0xbd90c3aa	-0.0706857
49	0x3d693c21	0.05694211
50	0x3ea34ed1	0.3189607
51	0x3e1a8b3a	0.15092173
52	0xbe6de235	-0.23230822
53	0xbe3360b0	-0.17517352
54	0x3d20ace4	0.03922738
55	0xbd89f785	-0.06736664
56	0x3e96a44c	0.29422224
57	0xbdc1ecb7	-0.09468978
58	0x3eae1d39	0.3400667
59	0x3ebb74a9	0.36612442
60	0x3eca893f	0.39557835
61	0x3ed55c63	0.41672048
62	0xbe56e899	-0.20987166
63	0x3e7cbb62	0.24680856
